frontend/android/app/src/main/assets/new_model_9_modified_newest.tflite (tflite, 548352 bytes, 12 tensors)

arith.constant f4 [128]
000000 82 67 59 be 36 ba 3a bc 29 e5 18 be cd ca 85 bf
       -0.21230891 -0.011396935 -0.14931168 -1.0452515
000010 36 51 26 bf ad 83 85 3f 21 1f 82 3d 97 ea 64 3e
       -0.6496767 1.0430809 0.063535936 0.22355114
000020 7b a4 47 bf 4d ed 53 be 7f 5d 7c 3f ee 34 8e 3d
       -0.7798535 -0.20695992 0.98580164 0.06943689
000030 16 5e 18 bf 2f f9 0f bf 64 b4 27 3e 16 09 ea be
       -0.59518564 -0.562396 0.16377407 -0.45710057
000040 aa 6e 06 be 48 b9 77 bf c7 b8 72 3e 49 13 5e 3f
       -0.13128152 -0.9676709 0.237033 0.86748177
000050 b3 3c e2 3e 74 1f 9a bf 02 28 98 3e 6a 7e 56 3e
       0.44186935 -1.2040849 0.29718024 0.2094666
000060 28 cb 0d bf d0 2f 62 3f 74 d7 39 bf 39 1e 06 bf
       -0.55388117 0.88354206 -0.7259438 -0.52389866
000070 95 66 53 3f 1b 46 60 bf 52 a0 0e bf 19 b8 57 3d
       0.825784 -0.8760697 -0.5571338 0.052665804
000080 a9 c3 e0 bf dd 45 e3 bd ef cd 5c be 79 fe 87 3e
       -1.7559711 -0.1109731 -0.21562932 0.26561335
000090 9e d5 5b be d7 2a ac be cd 7f c0 3d fb 2f 4b 3d
       -0.21468207 -0.33626434 0.09399376 0.049606305
0000a0 61 e4 87 3f 05 41 57 3e 49 52 1d bf 33 5d 0f bf
       1.0616571 0.21020897 -0.6145368 -0.56001586
0000b0 03 ec 55 3e 2b d9 73 bf 69 2a a9 bf 62 40 46 bf
       0.20890813 -0.9525325 -1.3216068 -0.7744199
0000c0 c7 9e 2a 3f 05 e8 1e bf b0 16 97 be b0 0c fa be
       0.66648525 -0.62072784 -0.29509497 -0.48837805
0000d0 13 f9 99 be a0 44 42 bf 1a 02 26 3e f0 ec 65 bf
       -0.3007284 -0.75885963 0.16211739 -0.8981466
0000e0 d0 e0 4b be ca ab ab be 6b 3c a3 3e ec 36 ac bf
       -0.19909978 -0.33529502 0.31882033 -1.3454261
0000f0 70 6d 70 bf 61 4f 82 3f e5 64 65 3e e1 b2 9a 3e
       -0.9391699 1.0180475 0.2240177 0.302146
000100 18 51 0e bf ec fe 7e bd 7a b9 3f 3f bd c8 2e 3e
       -0.5559249 -0.06225483 0.7489239 0.17068763
000110 74 0d 30 bf 21 62 27 bf 44 da 9b 3d 76 2b 12 3f
       -0.6877053 -0.6538411 0.0760999 0.57097566
000120 64 5c 77 bf cb 88 50 be 7f 9c 4b be 90 f0 66 be
       -0.9662535 -0.20364682 -0.19883917 -0.22552705
000130 4f a1 6a 3e 79 ef a5 3e ff f8 4f bf 8c 5a 41 be
       0.22913097 0.32409266 -0.8123931 -0.18882197
000140 3d 1d 48 3f e5 a9 48 3f dd 10 95 3e 58 36 92 3f
       0.78169614 0.7838424 0.29114428 1.1422834
000150 1f 7e 8f be 66 14 8d bf 6c a3 50 bc 87 fa 38 bf
       -0.2802591 -1.102185 -0.012734275 -0.72257274
000160 a9 bf c0 3e ae 3b 69 3e 74 3e 28 3f 53 f3 a1 3d
       0.37646225 0.22776672 0.65720296 0.079077385
000170 9e ee a6 3e 25 d7 17 bf a8 2a ee bd 94 d8 06 be
       0.32603925 -0.5931266 -0.1162923 -0.13168555
000180 cf 88 fe be 75 dd 80 bf 19 ed 83 bf 36 57 c5 be
       -0.49713752 -1.0067583 -1.0306731 -0.385431
000190 0f 58 75 3f f9 a9 62 3f 4c dd a5 3f 1c c9 6f bf
       0.9583749 0.8854061 1.295816 -0.93666244
0001a0 4a 67 78 3e 4b f4 e2 3d d0 ef 43 bf 98 77 61 3f
       0.24258152 0.110817514 -0.765378 0.8807311
0001b0 ad f4 24 bf 42 6a 5f 3f 06 2c 31 3f a5 f1 0d 3e
       -0.64435846 0.8727151 0.692078 0.13861711
0001c0 9e ca 24 bf 05 16 67 bf 41 3c 49 3f 2e 7d 4c 3f
       -0.6437167 -0.90267974 0.78607565 0.7987851
0001d0 29 39 1f bf f7 74 38 3e 2c 03 21 3f 76 ca 6b bf
       -0.62196594 0.18013369 0.62895465 -0.92105806
0001e0 60 ec 45 be 8e ba 79 3f c4 91 c4 3e f8 09 4b 3f
       -0.19328451 0.97550285 0.3839246 0.79312086
0001f0 ed 1a ee bd 5b 53 ef 3e e0 2a 0a 3f 48 9c 52 3d
       -0.116262294 0.46743283 0.5397167 0.051418573

arith.constant1 f4 [64]
000000 78 54 2b bf dd 72 7d be 3d 9e 54 3e 32 cb 93 3e
       -0.66925764 -0.24750848 0.20763488 0.28865963
000010 29 ec 79 bf 30 91 28 3f eb e8 43 bf bd f4 62 3e
       -0.97625977 0.6584654 -0.7652728 0.22163673
000020 59 70 48 3e 82 80 7d be cb e8 20 bf 9e 06 97 bf
       0.19574107 -0.24756053 -0.62855214 -1.1798894
000030 d5 63 60 bf 03 f1 b2 be 28 27 67 3f e4 99 66 bf
       -0.8765233 -0.34949502 0.9029412 -0.9007857
000040 22 e4 80 be cd c4 20 be 64 b0 f3 be 56 9b 68 bf
       -0.25174052 -0.15700074 -0.47595513 -0.90862024
000050 82 58 25 3f 90 ca 77 bf 30 6a d9 3e 99 05 0f 3f
       0.6458818 -0.9679346 0.42463827 0.55867916
000060 fd b2 22 bf f5 33 fb 3d e5 79 d7 bd 4c f9 a1 3f
       -0.63554364 0.122657694 -0.105212964 1.2654204
000070 92 1e b8 3f 57 f6 f7 3c 86 6b ec be ff 29 ab be
       1.4384329 0.030268831 -0.46175784 -0.33430478
000080 fc ea 7b 3f ea 18 a7 3e e5 38 87 3f fb 15 89 bd
       0.9840543 0.32636195 1.0564238 -0.066936456
000090 01 7a 76 3f f5 7a c3 bf 34 05 d6 be 69 27 47 3f
       0.96279913 -1.5271899 -0.41800845 0.7779451
0000a0 b8 97 05 bf 19 4c 1e bf 22 36 28 bf 65 ab 25 3f
       -0.5218463 -0.61834866 -0.657076 0.6471465
0000b0 5c b6 d1 3e cf cc 90 bf 0b 3b 91 3d 00 34 17 3f
       0.40959442 -1.1312503 0.0709134 0.5906372
0000c0 f0 83 9f bb 6c 76 9b bf f5 4f 93 bf 53 78 ba bf
       -0.004868023 -1.2145514 -1.1508776 -1.456797
0000d0 44 8d cd be 9e c8 6d be 12 d5 cc bd 70 33 08 c0
       -0.4014684 -0.2322106 -0.100015774 -2.1281395
0000e0 20 f9 8a be 7f 8b 4e bb d8 c5 17 3d 22 fa ef 3f
       -0.27143192 -0.0031516252 0.037053913 1.874821
0000f0 db 67 2a be eb 21 68 bf 93 3e 25 3c b8 4b 0a bd
       -0.1664118 -0.90676755 0.01008572 -0.033763617

arith.constant2 f4 [32]
000000 82 32 06 be 99 f3 cb be 4e 90 02 3f c1 62 a7 bd
       -0.13105205 -0.39834288 0.5100144 -0.08173133
000010 df fd 3a 3e 66 1c 31 3f b0 82 8a 3e aa 76 c3 bc
       0.18260907 0.6918396 0.27052832 -0.023860294
000020 1c 8a 0f bf 44 89 21 3f de 21 67 3e dc b9 73 3f
       -0.56070113 0.63100076 0.22571513 0.95205474
000030 4f 91 4d 3f 39 10 3b bf 40 dc a3 3e bd ae 76 3e
       0.8029985 -0.7307163 0.32003975 0.24090095
000040 cb ca f5 be c7 5d d7 bf 69 ec d2 3f 38 a7 c1 bc
       -0.4800628 -1.6825494 1.6478397 -0.023639306
000050 71 1e 61 bc 0f 6c e1 bb ba 4b 8a 3f 77 e8 85 bd
       -0.013740168 -0.0068793367 1.080436 -0.0653848
000060 32 0a b4 3f 40 aa ae bd 21 5a bc 3f e2 01 56 bd
       1.4065611 -0.08528566 1.4715005 -0.05224789
000070 34 fa 62 bf 0d 5e 89 bf 6c a4 28 3f 83 18 58 be
       -0.8866303 -1.0731827 0.6587589 -0.211031

arith.constant3 f4 [128, 3, 3, 64]
000000 76 eb 6a bc 0c 58 b6 3c 21 40 a8 bd 38 93 68 3c
       -0.014338365 0.02225878 -0.082153566 0.014195256
000010 8e 47 d0 bd cf b7 35 3d f8 44 bd 3d ab 01 20 bd
       -0.10169898 0.044364747 0.0924167 -0.03906409
000020 f1 eb 3b bd d4 86 85 3c b5 e6 be 3c af 88 36 bc
       -0.045879308 0.016299643 0.023303369 -0.011140986
000030 60 30 5a 3c 11 31 3a 3d c8 da c5 bc 2e 25 9f bd
       0.013317198 0.04545695 -0.024152175 -0.07770763
000040 a3 23 0c be 77 60 94 bd 28 9f 02 be 04 50 c6 3d
       -0.1368547 -0.07244962 -0.12756026 0.096832305
000050 b5 0b c4 3d 21 c1 d3 bd 42 c6 76 3d 81 4c b6 3c
       0.095725454 -0.10339571 0.060247667 0.022253277
000060 b1 36 e2 bd 2c 79 14 3e 90 be 3b bc 3d 06 4e 3d
       -0.11045588 0.14499348 -0.011459008 0.050298918
000070 eb e0 0f 3d 71 1b 4a bc 73 bb ba 3d ac 91 66 bd
       0.035126608 -0.012335644 0.09117784 -0.056291267
000080 89 5d 8f 3d 03 1b da bd 4c 5d 8e bd 22 20 2b bc
       0.07000262 -0.10649683 -0.06951389 -0.010444673
000090 cb c4 01 3e 8c 33 03 3d 11 a1 0b 3d c6 37 40 3d
       0.12672727 0.03203158 0.03408915 0.04692819
0000a0 a4 5e a1 3d c3 85 4d 3d 39 5c 08 3d bb 50 bc 3c
       0.078793794 0.050176393 0.033291075 0.022987714
0000b0 f8 f4 50 3d cf 55 d3 bc 79 98 2a 3e 3d ba 89 3c
       0.05101487 -0.025797753 0.16659726 0.016812438
0000c0 59 5c df 3c 51 1d 08 bd 35 13 fa bc 8e f1 23 3e
       0.027265714 -0.033231083 -0.030526737 0.16010115
0000d0 ee bb f4 3d 8b de 9a 3d f5 41 6e 3d 66 1f fb 3d
       0.11949907 0.07561978 0.05816837 0.12261848
0000e0 76 89 c0 3c 4a 9b 17 ba 27 89 ee 3b 17 c2 02 bc
       0.023503046 -0.0005783333 0.0072795334 -0.007980845
0000f0 73 93 83 3d 75 f4 dd bd 69 88 ac bd aa 74 46 3d
       0.06424608 -0.10837642 -0.08424456 0.048451103
000100 84 32 d2 bd 17 5a 77 bc 1f 74 14 3d da 78 3d bc
       -0.10263541 -0.015097163 0.036243554 -0.011564458
000110 98 51 eb 3d 78 93 62 bd 62 38 f1 bd 7b e1 41 bd
       0.11490172 -0.05531642 -0.11778332 -0.047334176
000120 7b 93 46 3d 31 35 8d bd 2c 8f 72 3d 9f 32 bf 3d
       0.048480492 -0.06894911 0.05921857 0.09335827
000130 8e da 1a bd a2 0a ad bd cc 87 dc 3c 9a 7d 30 3c
       -0.037806086 -0.08449294 0.026920222 0.010772133
000140 45 63 cd bd 37 28 cd 3d 38 58 5f 3d 76 18 a8 3b
       -0.100287 0.10017436 0.05452749 0.005129869
000150 5f cd 2f 3d 2e f4 09 3d b6 4c 7e bd a5 6b 85 3d
       0.042920467 0.033680134 -0.062084876 0.06514672
000160 70 61 cf 3d 9b 12 fb bd d8 69 c0 bc 4b 65 4c 3d
       0.101260066 -0.12259408 -0.02348797 0.049901288
000170 5f 06 3a 3e 3e 9b 91 3d 02 cd b7 3c b9 ab 6b bd
       0.18166493 0.07109688 0.022436623 -0.057536814
000180 2f 16 4b 3d 3e bd 28 3d 2d 70 ca bb 8b 5f 29 3d
       0.049581703 0.0411961 -0.006177923 0.041350883
000190 d9 0f 86 3c 64 ab 0a be 73 14 06 bb ce 1b cd 3c
       0.016364979 -0.13541943 -0.0020458966 0.025037672
0001a0 3f 64 ab bd 2a a2 bf bc fb 53 08 bd b6 9c 3d bd
       -0.0836873 -0.023392756 -0.033283215 -0.04629203
0001b0 74 ec 8c 3d 69 12 9d bd 9b be af 3d 96 03 21 bd
       0.06881037 -0.07669527 0.08581277 -0.03931006
0001c0 09 b2 c5 3c 3e 55 19 be 06 3f f7 3d 94 40 c0 3d
       0.024132745 -0.14973924 0.12072568 0.09387317
0001d0 f7 0d e2 bc 87 94 7b bd 40 84 a1 bd c0 a5 ab bd
       -0.02759455 -0.061420944 -0.07886553 -0.08381224
0001e0 99 93 2c 3c a0 60 4a bd a7 48 e4 3c 67 94 0b be
       0.010533237 -0.049408555 0.027866675 -0.1363083
0001f0 35 54 b1 3d 5c 51 95 bd 61 55 e3 3d 8a 2f 9f bb
       0.08658639 -0.07290909 0.11100269 -0.004857962
000200 79 e1 7d 3d 53 30 a2 3d 2a 62 93 3d c7 0d 4a 3c
       0.061982606 0.07919373 0.07196458 0.012332386
000210 fb ab 8f 3d 15 53 47 bd 85 d6 a8 bd 26 87 11 be
       0.070152245 -0.048663218 -0.08244041 -0.14211711
000220 03 13 ef bc 04 ad 6d bd 5a fd ef bc f5 b5 23 3e
       -0.02918387 -0.05802633 -0.029295612 0.1598738
000230 64 49 21 bd b3 bf ff ba 15 00 58 bd 4a 8d d7 bd
       -0.03937663 -0.0019512087 -0.052734453 -0.105249956
000240 82 c7 17 3e 75 cc f8 3c f5 a2 db bc d3 09 91 3d
       0.148222 0.03037093 -0.026811102 0.07081952
000250 39 f8 d8 bd 38 cd 27 3c 5e bc 94 3d 6b fd 5a bc
       -0.1059422 0.010241799 0.07262491 -0.013366084
000260 d2 ca 83 3d 09 e7 2e ba e6 11 7f bc 3d 12 1d 3d
       0.06435169 -0.0006672 -0.015568232 0.03834747
000270 2f 63 a5 3d 0a ef 8f 3d 74 13 61 bc 47 51 7d bd
       0.080755584 0.07028015 -0.013737548 -0.06184509
000280 5c 4e 4b 3d a2 27 c4 bd f6 22 57 3d 2a ec 73 bd
       0.049635276 -0.09577872 0.052523576 -0.059551395
000290 7e 8e c8 3d 8a 7a 30 bd a9 bb e7 bd f2 7d 13 3c
       0.09792803 -0.043085612 -0.1131509 0.009002196
0002a0 bb 01 b5 3b 48 92 d2 3d 8c c7 94 3d e1 98 0b be
       0.005523888 0.10281807 0.07264623 -0.13632537
0002b0 d5 0b e0 3c bd 55 eb 3c 1b e1 f7 3d 1c 46 47 3d
       0.027349392 0.028727407 0.12103482 0.048650846
0002c0 34 89 67 3d c5 7d 1a be 36 15 95 3d f1 53 0d 3d
       0.05652733 -0.1508704 0.07279436 0.03450388
0002d0 bd fc c2 bd 27 a6 06 bd cc 3c 8d bd 9d 95 c4 3d
       -0.09520862 -0.0328733 -0.06896362 0.09598849
0002e0 99 7e 8a 3b 63 f9 84 3d 02 80 ef 3d 4d 0d 74 bc
       0.0042265174 0.06492879 0.116943374 -0.014895749
0002f0 23 fd 18 be 30 cb aa bc 25 c4 7e bd dc 2c b8 3c
       -0.14940314 -0.02084884 -0.062198777 0.022482328
000300 95 3d 08 be 75 b0 33 bd 72 32 95 bd 9a 76 b1 3c
       -0.13304742 -0.043869454 -0.07285012 0.021662999
000310 fc 70 cb 3a e3 7c 50 bd ee 3b d8 3c e4 fb ed 3c
       0.0015521343 -0.05090035 0.026395764 0.029050775
000320 61 ed d1 bc 76 90 4c bd e3 31 e5 bc 5e cf 82 bd
       -0.025625886 -0.049942456 -0.02797789 -0.063872084
000330 76 3f 39 3d 7e f7 bc bb 9e 42 9f bd 77 e4 63 bd
       0.045226537 -0.005766808 -0.07776378 -0.055637803
000340 c4 c1 08 3d 6c 82 1f 3d ef 7d d6 3b 9e 2f ec bd
       0.033387914 0.03894274 0.006545774 -0.1153252
000350 d2 2d fb bd 4e 01 37 bc c1 f5 49 3d ca d9 e2 3d
       -0.12264599 -0.011169745 0.049306635 0.11076696
000360 2d 79 95 bc 3e 74 2a 3e e7 84 aa 3d ad d0 9a 3c
       -0.018246258 0.16645905 0.0832613 0.018898332
000370 c2 31 c6 3c 19 60 60 3d 25 46 67 bc fa 2a a8 3d
       0.024193648 0.054779146 -0.014115845 0.08211322
000380 46 c7 b9 3c a1 e4 8a bd 20 9b 0e bc d0 c3 1e bc
       0.022678029 -0.06781889 -0.008703977 -0.00969024
000390 33 1a 23 3d 9d bb af 3d 20 7f ec bb ea a7 ef 3c
       0.039819907 0.08580706 -0.007217303 0.029254872
0003a0 2d c7 24 3e c3 b7 2d bd 28 0b 80 bd 75 94 a6 bd
       0.16091605 -0.042411577 -0.06252128 -0.08133785
0003b0 81 22 aa bd 8c 44 dd bd 44 01 a8 3d 92 f2 8b 3c
       -0.08307362 -0.1080409 0.082033664 0.01708344
0003c0 d2 85 5b 3d e5 8b 4b 3d 5d 27 a0 3c 24 81 34 ba
       0.053594418 0.04969396 0.01955002 -0.00068856985
0003d0 d3 d9 c6 3d 6e a2 f9 bc 29 fc ca 3d e3 bf 3b 3d
       0.097095154 -0.03047296 0.09911377 0.045837294
0003e0 62 32 be 3c c1 2a b7 bc 3c d0 55 bd 41 55 de 3c
       0.023217384 -0.022359254 -0.05220054 0.027140262
0003f0 00 8c 97 bd b0 e5 2b 3d 40 66 47 3d 65 b2 98 3d
       -0.0739975 0.041967094 0.048681498 0.07455901

arith.constant4 f4 [64, 3, 3, 32]
000000 a5 f9 b0 3d 3e eb 4d bc ba 72 dc 3d 68 73 93 bd
       0.08641366 -0.012568293 0.1076407 -0.07199746
000010 3e 3e d4 bd 6b 98 56 bd 51 2a 55 3d 35 d2 8e bd
       -0.10363434 -0.05239145 0.05204231 -0.069736876
000020 36 ef aa 3d c8 b9 02 3e 7b a2 5f bd 8c 68 aa 3d
       0.08346407 0.12766182 -0.054598313 0.08320722
000030 b3 d9 16 3b 78 94 16 3e 83 d5 c2 bd f1 e7 82 3c
       0.0023017942 0.14705074 -0.095133804 0.015979739
000040 96 e8 89 bd 1c 4b f1 bc c4 c5 0c 3e f9 25 f9 3d
       -0.06733815 -0.02945476 0.13747317 0.12165446
000050 3e 61 05 bd 70 b3 f0 bc 4e 5d d5 3d f6 43 c1 bd
       -0.03256344 -0.029382437 0.10418187 -0.09436791
000060 a1 f5 75 3d af 4d 0b 3e a5 97 d0 3b 0d 82 b4 bd
       0.060048703 0.13603853 0.0063657337 -0.08813868
000070 95 1f 29 bd d5 2c c2 bd a0 09 04 be f0 27 31 3c
       -0.041289885 -0.09481207 -0.12894297 0.0108127445
000080 b9 0c 6a 3d c9 1e c1 bd 11 f4 9f bc 30 8b 16 3e
       0.05714104 -0.094297 -0.01952556 0.14701533
000090 fc 4f a6 3c ae 01 e0 bc 98 72 3a 3d 2e 90 d7 bc
       0.020301811 -0.027344551 0.04551944 -0.026313867
0000a0 e4 bb c9 bd 2b 93 32 bd 84 4e fc 3d 11 b5 77 bd
       -0.098502904 -0.04359738 0.12319663 -0.060475413
0000b0 f4 40 a8 3c 29 1c 83 3d fa 85 92 bd e8 8e e5 bd
       0.020538785 0.064018555 -0.0715446 -0.11208898
0000c0 04 f4 11 3e 32 26 63 3d 75 00 ea bd 56 92 c5 3c
       0.14253241 0.055456348 -0.114258684 0.02411763
0000d0 7e 31 a4 3d 41 e8 1b be 94 c1 d8 bd 35 82 7b 3d
       0.080172524 -0.15225317 -0.10583797 0.061403472
0000e0 b9 4d ca 3d 1d dd 51 3c 97 5d 0d 3d 6d 89 4f bd
       0.09878106 0.012809065 0.034513082 -0.05066817
0000f0 c7 f1 ba bd 62 8c 42 3e f1 84 05 3e 8f 7b 8b 3d
       -0.091281466 0.18998864 0.13038994 0.06810676
000100 fc eb 7a bd 29 d4 75 bc 57 b4 48 3d 15 a1 b1 bd
       -0.06126021 -0.015004196 0.04900011 -0.08673302
000110 b4 21 47 3c 6a 90 08 be 6f b6 dd bd 77 1c 58 3c
       0.012154032 -0.1333634 -0.10825812 0.01319038
000120 39 cb 6a bc 0f b9 27 bd 1a c7 4e 3d 37 c2 22 3e
       -0.014330679 -0.04094797 0.050482847 0.158944
000130 90 55 a3 3a 44 f9 08 be 8a c5 16 3e 42 e0 b4 3b
       0.0012461413 -0.13376337 0.14723793 0.0055198977
000140 49 e1 fb 3d 3a 2f 1d bc 76 57 b2 3d 5b 08 d5 3b
       0.12298829 -0.009593779 0.08708088 0.00650124
000150 a5 c0 4d 3d d7 34 e3 3c a9 30 8b bd 27 45 90 3c
       0.05023255 0.027735157 -0.067963906 0.0176111
000160 47 93 db 3c a7 c4 71 3d 4d 63 de 3c ea 68 8a bc
       0.026803626 0.059025433 0.02714696 -0.01689573
000170 31 69 51 bc dd 62 0f 3e 9c 29 5e 3d 92 06 d9 bc
       -0.012781427 0.14002557 0.0542389 -0.02649239
000180 71 12 82 bd cc e4 ad 3a ad 57 36 3e dd ee c0 3d
       -0.06351174 0.0013267039 0.17806883 0.094205596
000190 e6 0f d7 bd a4 0e 39 bd 94 29 9c bd 83 ad 7e bc
       -0.10501079 -0.045179978 -0.07625118 -0.015544298
0001a0 67 e2 09 3e e0 68 ca 3b 94 d1 19 3d 8c 4b 96 ba
       0.13465272 0.006177053 0.037553385 -0.0011466607
0001b0 27 71 aa 3d f9 a1 0a 3d df 7e 72 bd 2b ef 13 be
       0.08322363 0.033845875 -0.059203025 -0.14446704
0001c0 ca 00 98 bd a9 a5 eb 3b cb 8b 4a 3d 9c a8 1f be
       -0.074220255 0.007191379 0.049449723 -0.15591663
0001d0 39 99 e2 bc ed 1b ee 3c 11 14 75 3b ad 0a 2f be
       -0.027660953 0.02906605 0.0037395994 -0.17093916
0001e0 6d 77 85 3d 9b 0f 23 bc f1 c0 b3 3d 84 3b ca 3d
       0.06516919 -0.009952451 0.08777035 0.09874633
0001f0 a8 6b 00 3c f1 78 a1 bd 85 21 dc bd dd 3e 5c bd
       0.007838167 -0.07884396 -0.10748581 -0.05377089
000200 89 f6 81 3c 9a 98 63 3d 49 99 d1 3c cf 9f 41 3d
       0.015864627 0.055565454 0.025585787 0.047271546
000210 42 ed 83 bc d2 b5 13 bd 7b 00 b3 bd b3 1d d4 bd
       -0.016104344 -0.03606207 -0.08740326 -0.10357227
000220 a0 bf 7d bd 1f b1 34 3d 84 89 fc 3d 28 ae 3d 3d
       -0.061950326 0.04411423 0.123309165 0.046308666
000230 cf 5c e0 3d 4a 94 3c be 27 a8 9f 3d a6 a7 10 3d
       0.10955202 -0.18415943 0.077957444 0.035316132
000240 3f ce f9 ba 27 3d 7d bb c5 e5 ed 3d ac ef ad bb
       -0.0019058659 -0.0038641186 0.11616091 -0.005308112
000250 bb d6 62 bb a4 ed ae 3d 5a f2 3d 3d b3 0f ee bd
       -0.0034612853 0.0854142 0.046373703 -0.11624088
000260 ce ea 75 3d 41 76 6d 3d 7a 66 85 3b 4b 53 c0 bb
       0.06003838 0.057974104 0.004071054 -0.0058693043
000270 0e 76 d4 bc 4d 6c 24 3d ba 43 fa ba 95 90 f4 3d
       -0.0259352 0.040142346 -0.001909367 0.11941639
000280 a6 f6 35 bc d4 ff ce 3c 73 7e cf bb 4e 7c aa bd
       -0.011106169 0.025268473 -0.0063322126 -0.083244905
000290 0d 07 b8 bd 07 aa 4e 3b 9d 70 cf bc 1e e8 87 3d
       -0.0898572 0.003153445 -0.025322253 0.0663607
0002a0 4b ed b3 3d e8 be 55 bd 18 1c 15 3d 62 36 25 3d
       0.087854944 -0.052184016 0.036403745 0.040335067
0002b0 e4 8a 60 3d b7 e3 ea bc 3c ff b5 bd 2d 2f db ba
       0.054819956 -0.028673036 -0.08886573 -0.0016722434
0002c0 45 4e f5 3d b8 a5 12 be 64 7c 06 be 59 90 03 be
       0.11977819 -0.14321029 -0.13133389 -0.12848033
0002d0 dd d7 4b bd ac 88 0c bd 51 0d b7 b9 34 62 c6 bc
       -0.04976641 -0.034310028 -0.00034914401 -0.024216749
0002e0 26 5e a8 bc a4 f2 b7 bb 5a 27 ef bd 02 f1 7f bd
       -0.020552706 -0.005613642 -0.116774276 -0.062485702
0002f0 82 8a 8e 3d be 7b b1 bd 5d 9c ab bd 45 2a 94 bd
       0.06960012 -0.0866618 -0.08379433 -0.07234625
000300 7f a4 4b bc d0 df 0c be d3 c3 4b be 4a bc 13 3b
       -0.012429356 -0.13757253 -0.1989892 0.002254265
000310 06 0a 96 bd 42 4d 00 bd 7a 7b 4a bb 1c 28 2a be
       -0.073261306 -0.03132368 -0.0030896352 -0.16616863
000320 cd f9 6a bc 6b 53 02 3e 6c 70 32 3d 35 8d e8 3c
       -0.014341784 0.12727134 0.043564245 0.028387645
000330 30 d1 89 bd 9e 59 db 3d c4 ca 67 3d 18 e4 51 3c
       -0.067293525 0.107104525 0.056589857 0.012810729
000340 85 7c ee 3d 66 a3 54 be 35 f3 03 3e 87 a9 3e be
       0.11644844 -0.20765457 0.12885745 -0.18619357
000350 2d 00 75 3d e9 c0 05 3e 3a 0c 8b 3d 81 76 19 3e
       0.05981462 0.1306187 0.067894414 0.14986612
000360 30 21 89 3d f7 ac 08 3e 7d 8b 58 3d ab 90 46 bd
       0.06695783 0.13347231 0.0528674 -0.04847781
000370 ea f2 a3 3d e8 a3 e1 3d 6e c2 72 3c 51 95 e3 bc
       0.080053166 0.11017591 0.014816863 -0.02778116
000380 2e 92 1e bd 5d 81 9a 3d 5e 65 06 3e 29 2b 7d bd
       -0.038713627 0.07544205 0.13124606 -0.06180874
000390 cd a1 61 bd 55 6f 0d 3e be 25 8c 3c 1e cc 2b bd
       -0.055085946 0.13812001 0.01710784 -0.04194271
0003a0 77 7a 62 bd 9e 45 fd bd ba 4b b9 3d 20 8e 23 bc
       -0.055292573 -0.12366794 0.09047647 -0.009982616
0003b0 4e 67 90 bb 9b 1e 97 bd 7a 84 9b 3d 46 9e 91 3d
       -0.004406846 -0.073788844 0.07593627 0.071102664
0003c0 77 4b 35 be af 2f 39 3e b5 f0 28 3d c0 f9 8a 3c
       -0.17704569 0.18084596 0.04124518 0.016964793
0003d0 93 86 19 3e b6 23 e0 bc 4b 9d 58 bd ac 7e 3c 3d
       0.14992742 -0.027360778 -0.05288438 0.04601924
0003e0 20 0e 69 3c 61 26 19 bd 94 9c b1 3d cf 4e bd bd
       0.014224559 -0.037390117 0.08672443 -0.09243547
0003f0 2c 15 43 3d 73 e9 18 3e bf 19 6f 3b 70 4b 3b 3e
       0.047627613 0.14932804 0.0036483852 0.18290496

arith.constant5 f4 [32, 3, 3, 32]
000000 6e ef a9 3d 48 bf 67 bd b9 bf 56 bd 61 be 87 b9
       0.08297621 -0.056578904 -0.052428935 -0.0002589105
000010 60 c5 54 3d f6 5a 08 3e 04 61 ae 3d d2 7a 97 3d
       0.051946044 0.13315949 0.08514598 0.07396473
000020 3e f0 0a 3d 4c 30 22 3d 9d 27 8c 3d c4 cf c6 3d
       0.03392052 0.03959684 0.06843493 0.09707597
000030 00 22 a2 3c 2b b7 70 bd 98 3b 48 3d a9 92 a6 bd
       0.019791603 -0.058768433 0.048884958 -0.08133442
000040 9e d5 5c bd be a1 0a 3d 63 d4 98 3b f7 ca 21 3e
       -0.05391466 0.033845656 0.0046639903 0.15800081
000050 22 67 2f bd e6 63 ae 3d 59 2f c1 3c 21 64 51 3d
       -0.042822964 0.08515148 0.023582147 0.05112088
000060 d5 7a 5e 3d 3f 14 c6 3d 71 b7 07 3e b8 b2 5a bd
       0.05431636 0.096718304 0.13253571 -0.053393096
000070 9b 68 2a bd 61 db 44 3d 85 d9 a4 3d a1 c8 0c 3d
       -0.041603666 0.04806078 0.08049301 0.034371022
000080 d3 e1 33 3d 99 1b fc bd 85 04 ae 3d 22 b7 4f 3c
       0.043916535 -0.12309951 0.08496956 0.01267794
000090 86 0e 2b bd de 3c 61 3d 84 9e c9 3d 65 cc ee bd
       -0.041761898 0.054989688 0.098446876 -0.11660079
0000a0 12 7a c1 3d d7 1f ab ba a1 b8 52 3c 15 69 f9 3c
       0.09447111 -0.0013055754 0.012861402 0.030445615
0000b0 14 1f fe bd 2e 54 8c bc 0e 8d db 3b 4c 9f 80 3c
       -0.124082714 -0.017129984 0.0067001646 0.015700959
0000c0 f5 d1 61 3d 13 4f 86 3c 9b cf 8c 3d 47 3f d0 bd
       0.05513187 0.016395127 0.06875535 -0.10168319
0000d0 9f c9 87 bc b4 4f 5d 3d 4e 85 95 3d 55 97 1f be
       -0.016575633 0.05403109 0.073008165 -0.15585072
0000e0 1c e1 e9 bd 02 b9 06 be ea 54 3d bd 16 c3 54 bd
       -0.11419889 -0.13156512 -0.04622356 -0.05194386
0000f0 b4 5f 92 bd 78 2a f7 bc 06 4f 9f 3d 3d cd 64 bd
       -0.0714716 -0.030171618 0.077787444 -0.055859793
000100 68 27 ea bd 6b 91 4b 3c ab 37 11 be bc 73 20 be
       -0.114332974 0.012424807 -0.14181392 -0.15669149
000110 c1 13 11 3c 28 2a be bd 27 82 01 3d b4 b1 53 3d
       0.008854807 -0.092853844 0.031618264 0.051683143
000120 27 03 a4 bd 3d 60 3b 3d b5 6d ec 3d 4b 15 66 3c
       -0.08008414 0.045746077 0.115443625 0.014043163
000130 22 fd 9e bc d5 38 da bc 62 11 70 bd e2 6a 96 3c
       -0.019407813 -0.026638428 -0.058610328 0.018361513
000140 e9 fe 9c bd 84 a1 86 3d 7c c3 29 3e b2 03 c5 bd
       -0.07665808 0.065737754 0.16578478 -0.096198454
000150 f9 b7 1e bd 6c 2d cc 3d 2c bc 7a bd 43 33 02 be
       -0.03874967 0.09969601 -0.06121461 -0.12714867
000160 ac d2 45 bd bd c5 20 be 4a 5a a6 bd 71 9f 26 bd
       -0.048296615 -0.15700431 -0.0812269 -0.0406794
000170 da 49 f1 bc ec b5 20 3d 0b dc 4d bd c6 1f 28 3d
       -0.02945416 0.039235994 -0.050258677 0.041045927
000180 bd ab 89 bb e6 41 9e bd 0f 27 11 3c 6f 06 4e 3c
       -0.004201381 -0.07727413 0.00885941 0.012574776
000190 32 b6 81 3d 3c c3 68 3d 3e d3 9b 3b 83 e2 8c bd
       0.06333579 0.056826815 0.0047554066 -0.06879141
0001a0 07 ad 00 be 01 6f 0b bd f4 8d bc 3c bc c8 84 3d
       -0.12566005 -0.03404141 0.023016907 0.064835995
0001b0 fb 50 b2 3d fe 35 53 bd 9e 47 24 be 0f 7b a5 3d
       0.08706852 -0.051565163 -0.16042945 0.08080112
0001c0 2c a1 6f 3d 79 0a de 3d 63 73 08 3e 14 06 a9 3c
       0.058503315 0.10841841 0.13325267 0.020632781
0001d0 b1 d9 e7 3d d1 b4 02 be e9 bd 0c bd 8b 96 32 3c
       0.11320818 -0.12764288 -0.0343608 0.01090015
0001e0 11 cd 10 be 54 22 93 3d dd 8b c1 3d 86 ef c9 bc
       -0.14140727 0.07184282 0.09450505 -0.024650346
0001f0 a6 b0 97 3d f9 d2 da 3c ef 8d 9c 3d fe d6 d8 3d
       0.0740674 0.026711928 0.07644259 0.105878815
000200 45 df 49 bd 8f 6b ba bd b0 94 d7 bd 67 d7 d2 3d
       -0.049285192 -0.091025464 -0.10526407 0.10294991
000210 ba c7 11 bd e2 31 55 bc 75 b9 05 3e 93 b0 8e 3d
       -0.035590865 -0.013012381 0.13059027 0.069672726
000220 4c 3e 36 bc 1a e5 98 3d fb 34 9b bc e1 d1 6a 3d
       -0.011123251 0.07465573 -0.018946161 0.057329062
000230 66 4b 83 bd d1 82 48 3c 01 c6 09 3e c2 a6 b2 3d
       -0.064108655 0.01223822 0.13454439 0.08723213
000240 0c 4e 6f 3d 9d 9d a5 bc 47 09 92 bc 7e cb 61 3c
       0.05842404 -0.020216757 -0.01782669 0.0137814265
000250 e2 27 1c bd 8b 4a 26 be 38 cf 8a bd 0c eb a0 bc
       -0.038123973 -0.16239373 -0.06777805 -0.01964333
000260 5a 1b ed bc ee 75 da 3d 5b 23 8b 3d 71 03 17 bd
       -0.028943706 0.106670246 0.06793853 -0.036868516
000270 e6 e4 64 bd 9f 8d 92 3d 63 ab f6 3d 53 ae 3f 3d
       -0.055882357 0.07155918 0.12044408 0.046797108
000280 91 41 28 be f6 18 90 3a ef 3e c4 bd ab d7 c8 bd
       -0.16431262 0.0010993767 -0.09582316 -0.098067604
000290 23 57 5b bd 47 21 b4 bd 7c dd 1f 3d af 24 ed 3c
       -0.053549897 -0.0879541 0.039029583 0.028948156
0002a0 97 d3 90 bd 89 ff 23 bd f6 da 15 3e d1 60 c8 3d
       -0.070716076 -0.04003862 0.14634308 0.09784091
0002b0 f7 16 95 bc 7f 80 22 bd f9 0e 50 bd f6 c8 31 bd
       -0.018199427 -0.039673325 -0.05079553 -0.043404542
0002c0 e0 29 18 be 57 d8 10 bc 17 58 c7 bd 03 b1 1c 3d
       -0.14859724 -0.008840642 -0.09733599 0.03825475
0002d0 c5 7b 01 3d b6 0e 6a 3b f3 2c 0e be c1 4d d6 bd
       0.031612176 0.0035714335 -0.13884334 -0.10464049
0002e0 11 1b 23 3d e5 fd 23 3d be d2 0d 3d 13 b3 dd bc
       0.039820734 0.040037055 0.034624808 -0.027062928
0002f0 dd 9c 99 3d fc ed d1 3d ef 3d 01 3e 0c 6f ac bc
       0.075006224 0.1025047 0.12621282 -0.021049045
000300 cd b3 7e ba de b0 81 3d 84 4c 5e 3c 56 84 eb bd
       -0.00097161235 0.06332563 0.013568047 -0.114998505
000310 62 7c 59 bc 03 45 cd 3b d2 7e 95 3d 21 9e c6 3d
       -0.013274284 0.0062643304 0.0729958 0.096981294
000320 5f 5d 68 3d 37 04 c8 3c fb 49 ee 3d 0a b7 29 b9
       0.05672967 0.024416072 0.116352044 -0.00016185283
000330 d3 50 55 3d bb 09 a3 bb ff b0 97 3d 61 af 28 bc
       0.052079033 -0.004975525 0.07406806 -0.01029572
000340 33 c1 69 bd a1 ac 87 bc 25 50 37 3c 98 93 ea 3c
       -0.057069015 -0.016561808 0.011188542 0.028634831
000350 40 5d e8 3c 3e 1a d3 bd f1 e7 87 bb 69 85 9c 3d
       0.028364778 -0.1030774 -0.0041475226 0.076426335
000360 67 28 b0 bd b5 a4 12 bd fa 49 98 3c 75 9f 50 3d
       -0.08601456 -0.035801608 0.018589962 0.05093332
000370 f4 26 49 bd e3 d2 f3 bb 8e b8 8a bc a7 dc ea 3d
       -0.049109414 -0.007440911 -0.016933706 0.11467867
000380 41 d5 06 3e cf 98 97 bd 3a c0 cf 3b 25 63 ef bb
       0.13167287 -0.07402193 0.006340054 -0.00730552
000390 fd 1f 2f 3d e8 8c 2b 3d a6 d6 d9 3d e6 48 d8 3d
       0.042755116 0.041882426 0.10636644 0.10560779
0003a0 71 4b bc bc 33 e4 9a bd 1f 94 64 bd 97 1b 02 bc
       -0.022985192 -0.07563057 -0.05580532 -0.007941148
0003b0 34 76 43 bd 5d e3 eb bd ab 84 d0 bd 19 af 28 bc
       -0.04772015 -0.115179755 -0.101815544 -0.010295653
0003c0 46 89 d4 bc bc b0 33 3d ab 7a c4 bc 42 ba f5 bc
       -0.025944363 0.04386972 -0.023984274 -0.029996041
0003d0 33 98 8b 3d 94 b1 9c bd a2 b9 d3 bd 47 8b 2a 3d
       0.06816139 -0.07651058 -0.10338141 0.04163673
0003e0 be d9 c8 39 73 5b 87 bd 7d 79 37 bd 7f 8c f5 bc
       0.00038309203 -0.066092394 -0.044793595 -0.02997422
0003f0 9e 3a dc bd 4e e2 d2 3d a3 8b 76 3d 23 de fe 3d
       -0.10753368 0.102970704 0.06019176 0.12444713

arith.constant6 f4 [3, 256]
000000 51 5b 86 ba 25 75 9b 3a 40 1f b6 3d 7b ff e6 3c
       -0.0010250603 0.0011860473 0.08892679 0.028197994
000010 78 64 39 3d e5 1a 01 3e 42 01 68 0c ba 1d 68 bd
       0.04526183 0.12607916 1.7873008e-31 -0.056668974
000020 b4 13 1b be fa e7 df 3d c3 b0 26 3e b7 d1 29 bc
       -0.15144235 0.10932918 0.16278367 -0.010364941
000030 df 1a 06 3e f0 04 9b 0a d0 7c 3e bc bd 23 b6 bd
       0.13096188 1.4927814e-32 -0.011626437 -0.08893535
000040 16 d4 1b bd 63 01 ef 3d 5b 29 df bb 5c 11 3a 3d
       -0.038044058 0.11670186 -0.00681035 0.04542671
000050 65 b0 96 bd 49 73 b2 3d c4 cc 9d bd 15 f7 bc 3c
       -0.07357863 0.08713395 -0.077050716 0.023067037
000060 16 6f 68 bc a5 fc 10 3e 20 8c c8 3d 70 6c 49 bd
       -0.014186641 0.14158876 0.09792352 -0.04917568
000070 25 2e 2b be 80 a4 73 bd 59 3e 7f 3d a9 09 12 3d
       -0.16716821 -0.05948305 0.06231532 0.035653744
000080 f6 c8 17 3c 91 76 bb 3d 39 fe 46 bd f1 34 2a bd
       0.009264221 0.09153474 -0.04858229 -0.041554395
000090 8b 24 d9 3d f0 7f ab bc 5e 09 dc 3d 03 68 5f bc
       0.10602673 -0.020935029 0.10743974 -0.013635638
0000a0 ee 0c ad bd 33 a9 a4 3d da a4 87 bd a6 48 dc bd
       -0.08449732 0.08040085 -0.0662324 -0.10756044
0000b0 25 c1 50 bd 09 79 90 bd f7 d6 54 8c b0 72 09 be
       -0.050965447 -0.070543356 -1.6396575e-31 -0.13422656
0000c0 ff 3a 45 bc eb 54 12 3d 9b 19 c7 3b 8c 00 cc 3c
       -0.012037992 0.035725515 0.0060760505 0.024902605
0000d0 b8 62 bd bd 5a 9c ce bc eb e2 1d bd a4 83 e6 3d
       -0.09247345 -0.025221039 -0.038546484 0.11255577
0000e0 a8 5b 3e bd 8f ab 1f bd 31 53 9a bc 4a b8 dc 8b
       -0.04647413 -0.03898197 -0.018838497 -8.5018205e-32
0000f0 01 52 bc 3d 56 c5 5f be 09 3a 28 3c d6 c8 99 bd
       0.091953285 -0.21852621 0.010267743 -0.075090095
000100 41 00 c9 3b 57 51 a9 bd 7c 3e 37 bc 9f dc 18 be
       0.0061340635 -0.082674675 -0.011184331 -0.1492791
000110 a8 cf 71 bd 1d ab fb 3c 0e c1 b9 bd 11 79 c7 bd
       -0.059035927 0.030721242 -0.090700254 -0.097398885
000120 f7 30 3a 3c 8c b3 07 be 5f 1b c8 bd 8b c4 84 bd
       0.011364213 -0.13252085 -0.097708456 -0.064828
000130 57 ec fe 3b 31 ae 97 3d 7a 75 03 3d 5c c1 8b 3d
       0.0077796387 0.07406271 0.032094456 0.0682399
000140 2f 6b 7e 3d 6b b0 3d 0c c4 6c a6 3d b1 ce cd 3c
       0.062113937 1.4613119e-31 0.08126214 0.025122972
000150 e8 64 61 0c f6 c7 bd bd ef 6d 37 3d 79 d5 20 3e
       1.7363735e-31 -0.09266655 0.044782575 0.15706433
000160 8e fd 08 bd f4 82 8b 0c 7d 26 da bd 0c 11 1b 3d
       -0.033444934 2.1495156e-31 -0.10651872 0.037858054
000170 a6 ca 6a 0c 03 f7 78 3d 57 c6 6c 0c bd 05 aa 3c
       1.8087687e-31 0.060782444 1.8240464e-31 0.02075469
000180 85 d3 27 bd 6d 19 d0 3c 66 44 ff 3c 29 c5 16 be
       -0.040973205 0.025402749 0.031160545 -0.14723648
000190 44 aa 15 3e 7b 69 0d 3e d9 e9 22 3c 4a 73 04 3d
       0.14615732 0.13809769 0.009943449 0.03233651
0001a0 74 bb 01 bd 4e bf e6 bd 09 91 da bd 38 66 88 bd
       -0.03167291 -0.11266957 -0.106721945 -0.06660122
0001b0 74 94 17 3c 47 22 dd bd 23 72 f7 3d 8b 66 f1 3c
       0.009251703 -0.107975535 0.12082317 0.029467842
0001c0 e5 00 82 3b c1 0f 62 bd f4 99 24 3d 21 60 27 be
       0.003967392 -0.055190805 0.040185884 -0.16345264
0001d0 4b c7 4e 3c f2 dd 32 3e d5 0d 60 0c 66 11 46 3d
       0.012620757 0.17467478 1.7260495e-31 0.048356436
0001e0 93 f6 dc bd 3d bf d5 bd 3d ef e1 bd 2e c2 db 3d
       -0.10789218 -0.104368664 -0.11031959 0.10730396
0001f0 1f 93 67 8c 24 5e 3c bd 55 19 5c 3d 57 1e 2b 3e
       -1.7839865e-31 -0.045988217 0.053735096 0.16710792
000200 d1 4a 32 3d c3 ad e5 3c be 99 13 bd 78 04 82 bd
       0.04352838 0.028036958 -0.03603529 -0.063485086
000210 cc 42 ef 3c 0e 55 65 0c 3e 06 a7 8b 21 b9 94 bc
       0.029206656 1.7667114e-31 -6.433545e-32 -0.018154683
000220 eb fb b6 3d 05 86 1f 8c 65 05 0a bd 76 c9 bb 3d
       0.08934768 -1.2289244e-31 -0.03369655 0.09169285
000230 a8 1e 14 3c b4 93 7c bd e0 99 1f 3d 99 09 06 bd
       0.009040512 -0.0616643 0.038965106 -0.032723997
000240 63 b9 81 bc 5c ab 14 bd 96 1c ab 3b 9c 97 eb bd
       -0.01583547 -0.036296234 0.0052219136 -0.115035266
000250 4a a5 f7 3d 23 56 e1 3d 1a 02 67 3d 85 02 5d 8c
       0.12092073 0.110027574 0.05639849 -1.7025979e-31
000260 48 5f 87 bb e5 99 aa 3d 59 83 58 bc 9e de b3 bd
       -0.0041312315 0.08330134 -0.0132149095 -0.08782695
000270 5e e6 1b 3c 0a ab 5d 8c 66 9d ba 0c 0f f2 5a 8c
       0.009515373 -1.7076691e-31 2.8752568e-31 -1.6866951e-31
000280 b0 e0 7e 3d 09 f0 6f 0c 9f 27 f3 bc 32 5a 49 be
       0.062225997 1.8484123e-31 -0.029681979 -0.19663313
000290 6a d2 ba bd e6 03 59 3d 61 5b 69 0c de a9 e2 8b
       -0.091221645 0.052982233 1.7977165e-31 -8.730762e-32
0002a0 1c 4e 4d 3e 4d 43 23 bd 0f 36 d5 bd 69 dd bd 3c
       0.20049328 -0.039859105 -0.104107015 0.023176866
0002b0 37 57 a1 bd a8 0c bc bd 18 dd 27 be f4 7a 01 be
       -0.07877963 -0.091821015 -0.16392934 -0.12644559
0002c0 18 2d 1c bd 0f 4f f5 ba 6c a2 9a 3d 1d 6b 30 be
       -0.038128942 -0.0018715578 0.07550511 -0.1722836
0002d0 b8 b5 c9 3d 14 92 6e bc 71 2e 38 3d a9 6b 8e bc
       0.09849113 -0.014561195 0.044966165 -0.01738532
0002e0 3a a6 0c bd 79 e9 1a bd 70 db 6d bd c3 60 7b be
       -0.034338214 -0.037820313 -0.0580706 -0.2454863
0002f0 d6 32 51 3d 7a 51 d2 bd 92 bc 12 3e 5f 28 15 3d
       0.05107387 -0.10269447 0.14329746 0.036415454
000300 c5 84 95 bd 40 5c 83 bc 51 df 00 3d f0 f9 86 3d
       -0.073007144 -0.0160352 0.03146297 0.065906405
000310 b2 80 d4 bd e5 0f 9d 3d d9 e0 bf 3c 69 f0 0d 3d
       -0.10376109 0.07669047 0.023422645 0.0346531
000320 17 9b e7 bd 76 4f 21 3e 0e f7 f5 3d 17 a1 dd 3c
       -0.11308878 0.15752968 0.120100126 0.027054353
000330 c0 24 98 3b a1 fe 96 bd 08 9b 0d bc 2f 83 92 3b
       0.004643053 -0.07372785 -0.008642919 0.0044712047
000340 26 96 d5 3c 29 9b 0a 3d d5 ef b7 bd cb 4f 26 bd
       0.026072573 0.03383938 -0.08981291 -0.04060344
000350 58 88 99 3d c4 97 16 bc 91 b2 e5 3d 89 72 03 be
       0.07496709 -0.009191457 0.112156995 -0.1283666
000360 26 de e4 bc ef 7b 4f be 3c b5 28 be 95 6d 02 be
       -0.02793796 -0.2026212 -0.16475385 -0.12737115
000370 84 8e 5a 8c 04 e4 8c 3d db 80 c5 3c ec 8a 0c bd
       -1.6836996e-31 0.06879428 0.024109295 -0.034312174
000380 17 32 e2 3d d0 16 20 bd 43 29 64 8c 0d 14 92 3c
       0.1104471 -0.039084256 -1.7576898e-31 0.017831827
000390 c9 89 2d bd a7 b5 5a 3d 88 7f 66 bd 63 04 ee bc
       -0.04236773 0.053395893 -0.056273967 -0.029054826
0003a0 71 88 0a be e0 3c 25 be 29 18 e1 3d e2 9b a8 bc
       -0.13528611 -0.16136503 0.10990936 -0.020582143
0003b0 5b 3f 56 bd f4 9a 97 3d c2 71 97 3d 11 0d 02 bd
       -0.052306514 0.07402602 0.073947445 -0.031750742
0003c0 0f 7a 95 bc a9 82 86 bd 00 ac 5e 0c 7d 4d c8 3d
       -0.018246679 -0.0656789 1.7154017e-31 0.09780405
0003d0 3f a8 71 3c 96 7b b5 bd 88 c2 63 0b f6 e2 52 3d
       0.014749586 -0.08861463 4.386496e-32 0.051485978
0003e0 0c ee 68 3d 7c db 6f bc 23 73 c9 3c d0 07 9c 8b
       0.056867644 -0.0146397315 0.024591034 -6.010077e-32
0003f0 47 62 a2 bd 3b 6a 49 bd 76 29 3f bd be 38 7b bd
       -0.07928901 -0.049173575 -0.0466704 -0.06133341

arith.constant7 f4 [256, 128]
000000 bf 95 d1 bd d1 63 8f bb 2c 0b 43 3d 63 5b 82 3d
       -0.1023364 -0.0043759127 0.047618076 0.06365087
000010 89 a1 fe bc 5d ea 53 3d ad 86 f0 bb 92 fd b0 3b
       -0.031082885 0.051737178 -0.0073402734 0.0054013217
000020 f5 71 5d bd f7 32 c4 bb 7c bd ca 39 68 b0 29 bc
       -0.054063756 -0.005987521 0.0003866962 -0.010357
000030 16 e0 aa 3d 69 ac 0c 3b 64 75 66 3d 39 ae 29 3d
       0.08343522 0.002146507 0.056264296 0.041425917
000040 17 3a 89 bc fa 72 f6 3c d5 9d 42 bb dc b7 63 3d
       -0.016751332 0.030084122 -0.0029696126 0.055595264
000050 af 1a 16 bc 77 53 18 bc 0d 80 c5 3b e9 0f 5d bd
       -0.009161635 -0.009297243 0.0060272277 -0.05397025
000060 5e 66 bb 3c 09 4e 96 bd 53 be ef 3c da f2 43 bd
       0.02287596 -0.07339103 0.029265558 -0.047839023
000070 d9 6b 7e 3b 4e ca ea 3c f3 8d 1f 3c 38 fe 55 3c
       0.0038821606 0.02866092 0.009738433 0.013061099
000080 a1 65 7a 3c a6 7d 83 bd 5f 5c 58 3d c9 6a bc bd
       0.015283019 -0.0642045 0.052822467 -0.09200055
000090 2f 2a 9f bd d0 dc 5f bc 32 df a4 3d bc 16 c4 bc
       -0.07771718 -0.013663486 0.080503836 -0.023936622
0000a0 de a0 a8 bc 4a e2 5a bb 4e 89 8c bc 6f 81 82 3c
       -0.02058452 -0.003339904 -0.017155316 0.01593086
0000b0 25 22 4e bd 31 ac a4 3d 30 dd 95 bc 2c ed 08 3c
       -0.05032553 0.080406554 -0.018293947 0.008357327
0000c0 8d 0b 4a bc 92 b5 69 bd f2 fe 8a bd 0e 3c 40 3d
       -0.0123318555 -0.057057925 -0.06786908 0.046932273
0000d0 20 0a 10 bd 43 16 c8 3c b7 6c 8f 39 63 f2 5d 3c
       -0.035165906 0.024424678 0.00027356084 0.013546559
0000e0 ee 32 90 3b 60 97 83 3c 73 56 be ba 39 67 31 3d
       0.0044006025 0.016063392 -0.0014521613 0.04331133
0000f0 38 6d dc bc 75 96 cd bc 96 94 d5 bb 39 ac 88 3d
       -0.026907548 -0.025096158 -0.006517957 0.06673474
000100 4d a9 98 3d c6 77 9a 3d a6 d7 c9 bd ad 18 e1 bd
       0.074541666 0.07542376 -0.09855585 -0.10991035
000110 6d c3 12 bd ac 74 f3 bc 6c 02 99 bc ea ce 3d bd
       -0.035830904 -0.02971872 -0.018677913 -0.046339907
000120 28 ab b7 3b de 6e c7 bc 40 e2 c1 bc 17 e2 31 3c
       0.00560512 -0.024344858 -0.023667455 0.010857127
000130 1c e6 b5 bc 22 df 3f bc bc 84 38 3d 56 3a 46 3c
       -0.022204451 -0.011710914 0.04504846 0.012098869
000140 fe 0f 19 bd e2 32 d2 bc 77 8e 82 3d 3e f0 b8 3c
       -0.037368767 -0.025659028 0.06374829 0.022575494
000150 c6 26 e9 3c d9 c4 54 bd 57 45 78 3c 06 e2 20 3d
       0.028460871 -0.05194554 0.015153251 0.039278053
000160 99 72 7a 3d 7a 30 c0 3c 51 da d1 3c 6f de a1 3c
       0.061144445 0.023460615 0.025616797 0.019759385
000170 51 84 03 bd 01 ff bc 3d f7 31 3b 3d a3 a6 1f bc
       -0.03210861 0.09228326 0.045701947 -0.009744319
000180 ec f4 aa 3d 58 52 fa 3c 80 89 5f bb 5c f2 c8 3a
       0.083474964 0.030556843 -0.0034109056 0.0015331018
000190 8a 2a 2d 3c 16 e9 ce bc 40 23 91 bc 4f e1 87 3d
       0.010569224 -0.025257628 -0.017717004 0.06634771
0001a0 ea 93 06 bd ee 12 1c bd 59 95 a2 ba b4 9a f2 bc
       -0.032855906 -0.03810399 -0.0012404128 -0.029614784
0001b0 23 9c 77 3d 33 5a 1d 3d bc 00 c7 3d 47 8f 11 bc
       0.060451638 0.0384161 0.09716937 -0.008884258
0001c0 9a 5a 58 3d c2 01 a4 3c 4e 41 54 bc c0 3d 26 3d
       0.05282078 0.02002037 -0.012955023 0.040586233
0001d0 6c 15 9a 3c 1c fa ad bb b4 2b 84 3d 15 a7 b1 3d
       0.018809043 -0.0053093564 0.06453648 0.086744465
0001e0 ce 31 93 3c 3b 6a 71 3c ac ee ab b7 87 ee c5 bd
       0.017968085 0.0147348 -2.0495929e-05 -0.09664636
0001f0 a8 ad 9d 3c 90 16 fb 3b a4 16 ef bc 27 3d 03 bd
       0.019247845 0.007662602 -0.0291856 -0.03204074
000200 dd 44 c0 bb a8 06 81 38 ba 0b d5 3b 10 ec a7 3b
       -0.005867584 6.152439e-05 0.006501642 0.0051245764
000210 3f ab bc 3b db 30 c7 3b 93 9c 46 bb a9 4e a8 3b
       0.005757719 0.006078822 -0.0030305728 0.00513633
000220 1d 1b 68 bb 38 c3 84 3b 76 63 b6 bb 4d 55 4a bb
       -0.0035416551 0.004051592 -0.005566056 -0.0030873597
000230 59 61 fb 3a e8 c2 58 3b 8f 79 3f 3a cc b9 96 bb
       0.0019178792 0.0033075158 0.00073041854 -0.0045997854
000240 2e e3 3b bb 8a 4d fb ba 55 58 6b 3b 47 f4 f6 3b
       -0.0028669345 -0.0019172889 0.0035910804 0.0075364443
000250 0a 11 28 bb 69 0d 78 3b 60 0a 11 3b a3 37 97 3b
       -0.0025644922 0.003784979 0.0022131428 0.0046147867
000260 a4 aa 72 3b d0 4a 5f bb b1 f1 d5 ba 03 cc 7c 3a
       0.003702798 -0.0034071691 -0.001632264 0.0009643437
000270 da a6 9b 3b 71 12 ae 3b 84 60 89 3b f6 42 b5 3b
       0.004750115 0.005312257 0.0041924138 0.005531664
000280 62 73 23 3a 4f e0 b0 3b f8 ff 91 3b 08 2f e1 ba
       0.000623515 0.0053978334 0.0044555627 -0.0017180154
000290 cc 61 b4 bb 4d 1f 0d bb 6e 2d 0d 3c 85 4a b5 bb
       -0.0055048224 -0.002153355 0.008616788 -0.005532565
0002a0 e4 3d 1e bb 6a af 53 3b 22 59 50 3b 51 9e d6 3a
       -0.0024145776 0.00323006 0.0031791409 0.0016374086
0002b0 8f 4a f4 3a d7 20 5e bb 08 45 ea b9 ed 31 ba bb
       0.0018637943 -0.0033894086 -0.0004468339 -0.005682221
0002c0 a1 ec 93 bb 5e 74 d0 bb 07 e5 c7 3a ac 3a 6f 3a
       -0.0045142923 -0.0063615283 0.0015250751 0.0009125869
0002d0 d9 d0 e6 3a 09 03 bd bb eb 21 73 3b 12 04 be ba
       0.0017609849 -0.005768184 0.0037099074 -0.0014497063
0002e0 da 9c 27 3b 7d bf bd 3b 98 1e d9 3b 77 62 09 3c
       0.0025575669 0.0057906494 0.0066259615 0.008385292
0002f0 3a a2 9c 3b 80 20 87 bb 94 ab 76 bb f9 68 cb 3a
       0.004780081 -0.0041237473 -0.003763889 0.0015518955
000300 26 73 f3 3b fb 32 32 bb 20 90 56 3b cf 18 86 39
       0.0074294982 -0.0027191031 0.0032739714 0.00025576956
000310 9c 07 8e bb 4a 1e 06 3c 29 28 76 3b f4 e1 9e ba
       -0.004334403 0.008185932 0.0037560558 -0.0012121783
000320 af 18 ac bb 22 23 9a 3b 79 29 2d 3b b8 ab 80 3b
       -0.005251966 0.004703895 0.0026422425 0.0039267205
000330 cb 61 d5 bb 7b 68 67 bb 9f 31 81 3b 61 b9 81 3b
       -0.006511902 -0.0035310078 0.003942683 0.0039588665
000340 98 15 7a bb 62 a0 53 bb 91 b4 17 3b b5 5f c2 3b
       -0.0038159844 -0.003229164 0.0023148397 0.0059318193
000350 24 8e d4 bb 9d 82 6b bb 1d 4a 05 3c 7f dc c9 3a
       -0.006486671 -0.0035936006 0.008135346 0.0015400796
000360 67 a5 09 3c f5 e8 c3 3b e4 98 0f bb 4f 17 5b 3b
       0.008401251 0.0059786984 -0.0021911198 0.003343064
000370 90 34 70 3c fe ae 1c 3c c2 db c0 ba 51 9c d8 bb
       0.014660969 0.009563206 -0.001471393 -0.0066104312
000380 bf 3f b2 3a 06 96 ad 3b 21 7e 80 bb 22 f3 7c bb
       0.001359932 0.005297425 -0.0039212857 -0.0038597067
000390 3b 39 55 3b e8 91 56 3b 92 8c 86 ba 8a cb f8 3b
       0.0032535333 0.0032740775 -0.0010265282 0.007592623
0003a0 bf f1 bb 3a 76 9e b0 3b b7 a7 86 3b 54 a9 07 3c
       0.0014339014 0.0053899838 0.0041093486 0.008280117
0003b0 37 d0 87 bb 39 87 02 bc 5d 2c f3 3b 96 ef cb 3b
       -0.004144694 -0.00796681 0.00742106 0.006223629
0003c0 1c f5 10 3c 03 2a 7f ba 55 a9 9b 3b 56 aa 5a bb
       0.008847501 -0.0009733738 0.0047504106 -0.0033365688
0003d0 1a e5 6a 3b ce b4 9c bb 91 72 dd 3b 20 b5 10 3c
       0.0035842122 -0.004782296 0.006758042 0.008832246
0003e0 24 cb 24 3b 1d 85 1b 3b 4a 3b cb bb 5c 8d 61 bb
       0.0025145495 0.0023730465 -0.006202136 -0.0034416532
0003f0 5b 2f 8f bb a4 7e 9c ba 78 59 a1 3b fb 37 84 bb
       -0.004369659 -0.0011939597 0.0049239956 -0.0040349937

arith.constant8 f4 [256]
000000 4a f2 5d 3b 4f 1a 30 3b 77 b9 30 bc ca 21 c1 3b
       0.003386634 0.002687115 -0.010786406 0.0058939205
000010 3c 96 ed 39 46 f4 55 bc 12 ce a1 ba 44 cb d0 3a
       0.00045316096 -0.013058728 -0.0012344739 0.0015929719
000020 8e 02 cf 3b de 73 85 3b 09 c6 86 bb 8b b8 1b 3c
       0.006317443 0.0040726503 -0.004112963 0.009504448
000030 68 e0 03 bc b2 e4 d7 ba f2 3c 8c 39 d0 24 6c 3a
       -0.008049108 -0.0016471355 0.0002674829 0.0009008171
000040 59 75 c9 bb 01 a9 d2 bb 3b 81 57 bc 6e d0 e8 bb
       -0.006148022 -0.0064288382 -0.01315337 -0.007104925
000050 0d 4f 08 3c ac 5b 27 3b de 26 3c bb 99 4e 26 bc
       0.008319628 0.0025536818 -0.002870969 -0.010150575
000060 ac 80 af 3b 0f 82 5c 3c a0 df d7 bb a6 bd 54 3c
       0.005355915 0.013458743 -0.0065879375 0.012984669
000070 fe a9 f8 3b 73 a0 88 3b 16 a7 29 bb 65 fc 97 b9
       0.007588624 0.0041695177 -0.0025886944 -0.00028989013
000080 d9 49 12 3c 45 74 32 3c 4b a4 32 3c 96 a5 57 3c
       0.0089287395 0.010891979 0.010903428 0.013162037
000090 5d c4 35 bc aa a1 33 ba cf 9b b4 3b 81 86 38 3b
       -0.01109418 -0.0006852398 0.005511738 0.0028156342
0000a0 8e c1 b6 bb f1 1b 1f bc a1 03 39 3b 4b c0 61 3c
       -0.0055772727 -0.009711252 0.0028230923 0.013778756
0000b0 fe 48 6b bb ac 1c ed 3a e4 33 c3 bc c7 47 cd 3a
       -0.003590166 0.001809021 -0.023828454 0.001566165
0000c0 c1 17 b5 bc 72 bc 1a 3c 8b d9 3b bc 5f 82 76 bc
       -0.022106053 0.009444343 -0.0114654405 -0.015045731
0000d0 d4 6d e1 3b 1a c8 11 3b 61 ff 86 3b d7 1c 61 3c
       0.0068795476 0.0022244514 0.004119799 0.013739786
0000e0 51 76 5d 3b 51 38 3c ba 06 42 47 3b 69 10 fe b9
       0.0033792446 -0.00071800227 0.0030404343 -0.00048458882
0000f0 05 ea c5 3b eb f0 0b bb 4c 27 67 3b 79 c9 f5 3b
       0.00603986 -0.0021353315 0.0035271225 0.007500824
000100 a9 50 2b bc 40 c8 2b 3b 9f 7e cf 3a 44 ba 8d bb
       -0.010456243 0.0026211888 0.0015830583 -0.004325183
000110 30 4a b4 3b cc b3 e0 3b 00 70 13 3c c6 cc 6e 3a
       0.005502008 0.006857371 0.008998871 0.0009109493
000120 fa d1 d8 3b cc c1 eb bb 50 30 8c 3c d6 ae b4 3a
       0.006616828 -0.0071947332 0.017112881 0.0013785015
000130 ee a0 4c 3c 6c 9e c1 ba ff c2 b7 3a 34 45 0d 3c
       0.0124895405 -0.0014771945 0.0014019905 0.008622456
000140 2c b3 38 3c 69 f7 3e b8 50 91 35 b8 1e 2a aa 3a
       0.011273187 -4.552995e-05 -4.3289096e-05 0.0012982523
000150 b1 03 be bc d0 71 4c 3c 28 d7 99 bb 1a 6f 00 3c
       -0.02319512 0.012478307 -0.004694838 0.007838989
000160 fb 84 77 bc cf 4e 97 ba 4c cc 8c bc c0 a1 c2 bb
       -0.015107389 -0.0011543873 -0.01718726 -0.0059396923
000170 43 1d 8a bc 17 9d 3f bc a9 79 63 bc d5 1e 74 3b
       -0.016859656 -0.011695168 -0.0138839865 0.0037249823
000180 77 0a 6d 3c 34 cc 95 bb f8 a1 93 3b ec 7c 1c bc
       0.014467827 -0.004571462 0.004505392 -0.009551268
000190 8c 30 e5 3b ef 87 cf bb e2 37 d0 39 94 81 2a 3c
       0.0069943126 -0.006333343 0.00039714488 0.01040687
0001a0 3a 0c 76 bb a6 cb 10 3c 16 f1 a5 3b 0d b4 51 3b
       -0.0037543909 0.008837616 0.00506414 0.0031998188
0001b0 97 e6 e9 3a d1 8b dc b9 c7 31 c6 bb 43 ad 26 bc
       0.001784521 -0.0004206584 -0.0060484144 -0.010173145
0001c0 03 ff 03 bb 16 e4 d5 b9 2b c3 c4 3a dc ec 45 3b
       -0.0020141013 -0.00040796463 0.0015011778 0.0030200994
0001d0 c9 ce 4b 3c 5d 22 f3 bb 8e ae 85 b9 24 a4 52 ba
       0.012439438 -0.007419868 -0.0002549779 -0.0008035323
0001e0 65 74 e1 bb 1f 2b 23 bc b2 e6 29 bb e3 98 f0 ba
       -0.0068803304 -0.009959011 -0.0025924859 -0.0018356111
0001f0 ad 87 be 8f d4 97 3b 3c 62 5e bc bb e8 76 f0 3a
       -1.8787707e-29 0.011449773 -0.005748556 0.0018345984
000200 d1 fc e4 3b 53 23 b4 bb 8e d7 ef 3b 87 79 94 ba
       0.006988146 -0.005497375 0.0073193973 -0.0011327722
000210 b4 39 50 bb f6 d7 d8 ba af 4d 03 ba 53 66 3f bb
       -0.0031772675 -0.0016543854 -0.0005008829 -0.0029205277
000220 79 b1 82 ba 00 00 00 00 c1 e5 33 ba 37 03 82 bc
       -0.0009971104 0.0 -0.0006862544 -0.015870674
000230 4a f0 01 3c 02 a5 43 3b b9 e8 99 bb d1 e4 3a 3c
       0.0079308245 0.002985299 -0.004696932 0.011407093
000240 52 19 21 bc 46 7d e3 3a 51 7a 8e 3a 08 1a ba 3b
       -0.009832697 0.001735606 0.0010870193 0.0056793727
000250 b7 29 18 bc 8d 62 ff 3b 6a a3 ea ba 6e 50 25 bb
       -0.009287289 0.0077937306 -0.0017901484 -0.0025224942
000260 30 61 ac bb f1 6e 32 3a 2e 6a be 3a 12 46 03 3c
       -0.005260609 0.00068066927 0.0014527494 0.0080123115
000270 e2 4a c2 3a 00 00 00 00 9c 9e e6 93 08 bc d9 bb
       0.0014823342 0.0 -5.8216564e-27 -0.0066447295
000280 02 d4 dc 3b c8 da 15 b9 1b f6 af 3b b3 69 57 bc
       0.0067391405 -0.0001429125 0.005369914 -0.013147759
000290 b1 4e 52 bc 74 cf a0 bc 2f a1 8c bc 79 7d 9b bb
       -0.012836144 -0.019630171 -0.017166702 -0.004745182
0002a0 60 7f 16 bc f7 83 a8 3b c4 47 bf 3b 80 81 8e 3b
       -0.009185642 0.0051426846 0.0058374126 0.0043489337
0002b0 25 06 b6 3b c8 a8 95 3a 4b 1e ae 3b 2f 1b 15 3c
       0.0055549317 0.0011418099 0.00531367 0.009100719
0002c0 fb a3 f9 ba d6 c5 f2 b9 6c bb 06 3b cd d9 18 3c
       -0.0019046062 -0.00046305236 0.002055849 0.0093292715
0002d0 83 aa 55 bb 2f 9e 9e 3b 85 5c 38 bc 25 70 a3 3a
       -0.0032602854 0.0048406343 -0.011252527 0.0012469335
0002e0 ac 87 7e 3a ff 89 00 3c 47 8d 02 3c f8 80 04 3c
       0.0009709548 0.007845401 0.007968253 0.008087389
0002f0 fe 60 61 bc ef 28 66 3b dc ef d8 bb d9 5f 44 3b
       -0.013756035 0.0035119613 -0.0066203903 0.0029964356
000300 d7 45 a0 b9 ca de 04 3c 2f 73 be ba da ff 15 bb
       -0.00030569613 0.008109758 -0.0014530177 -0.0022888095
000310 82 b0 9b bb f9 80 4b bb cd 54 8f bb a4 ba 0c 3c
       -0.004751266 -0.0031052215 -0.0043741227 0.0085894205
000320 bc cf 03 3c cc da 51 3c 72 7a d8 3b 07 9e 8c 3b
       0.008045133 0.012808513 0.0066063935 0.0042912993
000330 86 07 ae ba 46 55 89 3c fd 6e 52 bc 86 7d 84 3c
       -0.0013277389 0.016764294 -0.0128438445 0.016173135
000340 a5 4f 18 3b fe 70 1b 3c 44 c9 6b ba f4 60 d1 ba
       0.0023240831 0.009487389 -0.00089945295 -0.0015974329
000350 e7 1e 06 3c a0 db a0 3b 7e f7 9b bc ce 36 dd 3b
       0.008186079 0.004908994 -0.019038912 0.006750918
000360 eb fa 0e 3b 0e 75 0c 3c ff 01 4c bc b8 c8 51 3b
       0.002181704 0.00857283 -0.012451648 0.0032010507
000370 f2 4f a2 ba 1a c3 85 3a 5b e6 26 3b e9 b2 04 3c
       -0.0012383445 0.001020524 0.0025466892 0.008099296
000380 1e 97 de b9 81 08 08 3c bb 23 7c bc ea 2e 71 bb
       -0.0004245573 0.008302809 -0.015389378 -0.0036801645
000390 0e a3 43 3b 87 c1 88 39 c0 b0 ed 3b 87 8b 23 3b
       0.0029851827 0.0002608413 0.0072537363 0.002495499
0003a0 77 26 8e ba a7 10 4f 3c ef c4 05 3b 9d 54 d6 3b
       -0.0010845204 0.012638248 0.002041157 0.0065408484
0003b0 5d 13 4f 3c 10 6b 33 bc ac e7 89 3c 1b 24 b0 bb
       0.012638894 -0.010950819 0.016834103 -0.005375398
0003c0 65 da fa 39 15 a1 c2 3b 00 00 00 00 21 a8 cd 3b
       0.00047846432 0.0059396126 0.0 0.006276146
0003d0 ff 5f 80 bb e8 12 7c ba 00 00 00 00 7d bd a9 bc
       -0.0039176936 -0.00096158544 0.0 -0.020720238
0003e0 66 ad 63 bb 65 d0 fb 3a 66 1e c0 ba 6a f7 71 ba
       -0.0034740805 0.0019211887 -0.0014657497 -0.0009230288
0003f0 e0 4d ab 3b 73 86 b5 bc ea e2 2e 3c 8e 64 51 ba
       0.0052277893 -0.022158837 0.010674218 -0.0007987701

arith.constant9 f4 [3]
000000 52 89 8b bb f9 10 a4 39 07 2c 84 3b
       -0.004258313 0.00031293163 0.004033569
